…
edding", "id": 4975657936, "class_name": "Embedding(10, 64)", "parameters": [["weight", [10, 64]]], "output_shape": [[256, 6, 64]], "num_parameters": [640]}, {"name": "positional_embedding", "id": 4516108832, "class_name": "PositionalEncoding()", "parameters": [], "output_shape": [[256, 6, 64]], "num_parameters": []}, {"name": "dropout", "id": 4960925776, "class_name": "Dropout(Dropout(p = 0.1)", "parameters": [], "output_shape": [[256, 6, 64]], "num_parameters": []}, {"name": "decoder_blocks", "id": 4961145504, "class_name": "Sequential(\n  (0): DecoderBlock(\n    (MLP): MLP(\n      (linear_1): Linear(in_features 64, out_features 256. bias True)\n      (linear_2): Linear(in_features 256, out_features 64. bias True)\n      (gelu): GELU()\n      (dropout): Dropout(Dropout(p = 0.1)\n    )\n    (multiheaded_self_attention): MultiheadMaskedAttention(\n      (W_QKV): Linear(in_features=64, out_features=192, bias=True)\n      (W_O): Linear(in_features=64, out_features=64, bias=True)\n    )\n    (layer_norm_1): LayerNorm()\n    (layer_norm_2): LayerNorm()\n  )\n  (1): DecoderBlock(\n    (MLP): MLP(\n      (linear_1): Linear(in_features 64, out_features 256. bias True)\n      (linear_2): Linear(in_features 256, out_features 64. bias True)\n      (gelu): GELU()\n      (dropout): Dropout(Dropout(p = 0.1)\n    )\n    (multiheaded_self_attention): MultiheadMaskedAttention(\n      (W_QKV): Linear(in_features=64, out_features=192, bias=True)\n      (W_O): Linear(in_features=64, out_features=64, bias=True)\n    )\n    (layer_norm_1): LayerNorm()\n    (layer_norm_2): LayerNorm()\n  )\n)", "parameters": [["0.MLP.linear_1.weight", [256, 64]], ["0.MLP.linear_1.bias", [256]], ["0.MLP.linear_2.weight", [64, 256]], ["0.MLP.linear_2.bias", [64]], ["0.multiheaded_self_attention.W_QKV.weight", [192, 64]], ["0.multiheaded_self_attention.W_QKV.bias", [192]], ["0.multiheaded_self_attention.W_O.weight", [64, 64]], ["0.multiheaded_self_attention.W_O.bias", [64]], ["0.layer_norm_1.wei
…
